…
            "W0721 04:59:48.532212 140196884248448 deprecation_wrapper.py:119] From /usr/local/lib/python3.6/dist-packages/keras/backend/tensorflow_backend.py:3295: The name tf.log is deprecated. Please use tf.math.log instead.\n",
            "\n"
          ],
          "name": "stderr"
        },
        {
          "output_type": "stream",
          "text": [
            "_________________________________________________________________\n",
            "Layer (type)                 Output Shape              Param #   \n",
            "=================================================================\n",
            "conv2d_1 (Conv2D)            (None, 26, 26, 32)        320       \n",
            "_________________________________________________________________\n",
            "flatten_3 (Flatten)          (None, 21632)             0         \n",
            "_________________________________________________________________\n",
            "dense_5 (Dense)              (None, 64)                1384512   \n",
            "_________________________________________________________________\n",
            "activation_5 (Activation)    (None, 64)                0         \n",
            "_________________________________________________________________\n",
            "dropout_1 (Dropout)          (None, 64)                0         \n",
            "_________________________________________________________________\n",
            "dense_6 (Dense)              (None, 128)               8320      \n",
            "_________________________________________________________________\n",
            "activation_6 (Activation)    (None, 128)               0         \n",
            "_________________________________________________________________\n",
            "dropout_2 (Dropout)          (None, 128)               0         \n",
            "_________________________________________________________________\n",
            "dense_7 (Dense)              (None, 10)                1290      \n",
            "_________________________________________________________________\n",
            "activation_7 (Activation)    (None, 10)                0         \n",
            "=================================================================\n",
            "Total params: 1,394,442\n",
            "Trainable params: 1,394,442\n",
            "Non-trainable params: 0\n",
            "_________________________________________________________________\n"
          ],
          "name": "stdout"
        }
      ]
    },
    {
      "cell_type": "code",
…
